code/model/bigram_state_2023_05_17-10_58.pt (torch, 17901 bytes, 1 tensors)

token_embedding_table.weight f4 [65, 65]
00000000: bf79 1540 8422 abc0 3f9a b3c0 0cde c3c0
00000010: 66d4 96c0 018a 30bf 0741 8dc0 b3ca 8bc0
00000020: d78b 9ec0 cec1 32c0 629c d0c0 d401 b8c0
00000030: 1433 a2c0 4768 ef3f 2fee 443f 5cc0 2f3f
00000040: 76be 7e3e 65aa f8be a47e 433f 4118 b03e
00000050: c2c4 643f 5563 b53f 7bde 6fbf 4a70 c9be
00000060: 4b6c e23e 19b8 5f3f debe ff3e f5ee 293f
00000070: 76a9 ce3e 7f7a 8ebf 5467 05be 1a6e 963f
00000080: 5fc4 f63f 5e35 62bf 6767 b2bf 8d60 b43f
00000090: b676 a4c0 b06a 0c3e 03dd cac0 5423 93bf
000000a0: ed60 d3bf d03e c0bf e41a d2bf 024e 11c0
000000b0: 5ac5 e1bf 6605 29c0 dc9e babf 1448 fabf
000000c0: ad54 5dc0 caaa 55c0 98aa 20c0 a019 dfbf
000000d0: 6a83 0cc0 3d3c 09c0 558f d5bf 2748 bbc0
000000e0: 3471 0bc0 d806 89bf 0147 4cbf 1908 3dc0
000000f0: 8e1a 50c0 477d afbf fa69 74c0 fd1d 14c0
00000100: 9080 c1c0 0dbe 92c0 fd65 90c0 360e a6c0
00000110: 5eb1 b2c0 f3c2 8cc0 2c54 bdbf ae63 c3c0
00000120: cf8f 53c0 b3dc b3c0 8cab 9dc0 d808 8dc0
00000130: 1fee cdc0 a2c6 89c0 4105 00c0 f13a c3bf
00000140: 7069 8dbf 966b 20c0 6d7d a4bf 145f 15c0
00000150: a42e d4bf ebd9 afbf 613c 0c3f 2913 2fc0
00000160: 6cda 27c0 e423 cabf 5364 bcbf f7c2 34c0
00000170: 5007 cbbf 5f45 02c0 1e0c a9c0 438b a0bf
00000180: aaf3 e0bf 0f1e e2bf 7277 8cc0 9d44 f0bf
00000190: 66e4 edbf 01e1 8bc0 09ba 02c0 71ab a3c0
000001a0: 67b6 dc3f 4684 a23f 9640 423f 078b 4f3f
000001b0: 3a80 7dbd ca01 763f bc53 8c3e 2f3f c23f
000001c0: e789 8b3f ba2f ccbf 7ef3 02bf ef54 3c3f
000001d0: 37d5 bf3f 43ea 3d3f 5ebc 923f c1fe 113f
000001e0: 22d0 f1bf 1704 4a3c cd78 c83f 5404 1040
000001f0: 5050 42be 7404 9fbf dfaf b83f 900d cfc0
00000200: 1db5 433f c19d 59c0 5252 3640 479e 1b40
00000210: 503d 76c0 6b79 62c0 5284 a5c0 3f65 31bf
00000220: dab1 a2c0 5983 89bf 589e 83c0 2462 8ec0
00000230: 5315 99c0 597b b7c0 607e 8cc0 7557 88c0
00000240: 233f 40c0 cd39 86c0 3503 cec0 0454 aac0
00000250: d336 a5c0 c4f9 aac0 b714 b4c0 ed1e 81c0
00000260: 5b84 bec0 3706 9dc0 a145 7dc0 5db1 a8c0
00000270: 666a c0c0 01cd b4c0 bb39 68c0 e01a b6c0
00000280: cbc5 bbc0 9204 a0c0 fb8c a3c0 092a 3dc0
00000290: 5503 f0c0 1f3b 93c0 a36b b9c0 4b06 a9c0
000002a0: 0ccc a1c0 a302 4ec0 c978 a6c0 213c a8c0
000002b0: 04e7 c8c0 5694 a3c0 8850 d7c0 bbd9 c9c0
000002c0: 21e4 abc0 2673 c3c0 97c2 9dc0 4421 9dc0
000002d0: 3849 8cc0 529b 87c0 86b2 d3c0 94a1 78c0
000002e0: 3947 86c0 8f61 83c0 6ec4 8fc0 3906 c7c0
000002f0: 2fc2 b5c0 66cd 48c0 4e2e 93c0 be9a 7dc0
00000300: 566b 9cc0 bcce abc0 8878 5cc0 aeef 833f
00000310: 2a87 4c3f 463c e9be 0108 aebe 2c3b d73e
00000320: 71f8 5d3c b57a 9dbf 5ecf 533f 6317 c53e
00000330: 5d96 6bbf 9d65 36bf 66f3 80bd f8d6 b33d
00000340: 2360 623e 92be 09bf 5791 6cbe fbf6 acbe
00000350: df47 f43e 6553 e63e e015 6b3f 78e8 0a3f
00000360: 3e39 bf3e 783d 253f 52f6 4fbe 7ca3 0dbf
00000370: 2535 ddbe b549 8c3e f6bb d2be c60e 97be
00000380: 0eb1 dcbe 7d83 27be ec4b 243c 52ea 67be
00000390: 7261 b8bc a4ce 1b3f c22f 9639 0bb2 a9be
000003a0: dd93 1b3f 48e9 8fbf aa95 e93e 39d1 b0bf
000003b0: d369 39bf 24d5 3f3d 8d81 acbe e84c 9dbe
000003c0: bd1a 8e3f 6ced f1bc 65ad 18bf 7671 5cbf
000003d0: c902 a23e 90da 55be c106 1bbc 4c7c 26bf
000003e0: 339e 74be 23cf 0a3e 776b 30bf 26d0 6cbf
000003f0: a43c 543f 1ae8 b4bf 5c17 c8be b1ee 4c3f
2.3355558 -5.3479633 -5.612579 -6.1208553 -4.7134275 -0.6896058 -4.414188 -4.3684936
-4.9545703 -2.793079 -6.5190897 -5.750223 -5.068735 1.8703698 0.7692594 0.6865289
0.24877343 -0.485675 0.76365113 0.34393504 0.8936273 1.4170939 -0.93698853 -0.39343482
0.44223246 0.87390286 0.49950308 0.66380244 0.40363663 -1.1131133 -0.13027698 1.175235
1.9278678 -0.8836268 -1.3937806 1.4091965 -5.139491 0.13712573 -6.339479 -1.1495156
-1.6513954 -1.5019169 -1.6414456 -2.2703862 -1.7638352 -2.6409545 -1.457973 -1.9553246
-3.4582932 -3.3385491 -2.5104122 -1.7429695 -2.1955209 -2.1443017 -1.6684366 -5.8525577
-2.1787844 -1.0705214 -0.79795843 -2.9536192 -3.2516208 -1.3710107 -3.8189683 -2.3143303
-6.0469437 -4.5856996 -4.5124497 -5.1892347 -5.5841513 -4.3987975 -1.4791312 -6.105918
-3.3056524 -5.620691 -4.927191 -4.4073296 -6.4353175 -4.305497 -2.0003207 -1.5252362
-1.1047802 -2.5065665 -1.2850777 -2.333928 -1.6576734 -1.3738378 0.5477963 -2.7355444
-2.6227064 -1.5792203 -1.4718117 -2.8243997 -1.5861607 -2.035484 -5.282729 -1.2542499
-1.757436 -1.7665423 -4.3895807 -1.8770939 -1.8585327 -4.3712163 -2.0426047 -5.114678
1.7243165 1.2696617 0.758798 0.81071514 -0.061889865 0.9609648 0.27407634 1.5175532
1.090146 -1.5952065 -0.5115279 0.735671 1.4986943 0.7418558 1.1463735 0.5702935
-1.8891642 0.012330077 1.5661865 2.2502642 -0.1897595 -1.2423234 1.4428672 -6.4704056
0.7644823 -3.4002535 2.8487744 2.4315355 -3.8474922 -3.5386608 -5.1724024 -0.69295114
-5.0842104 -1.0743209 -4.113079 -4.44948 -4.783853 -5.733807 -4.3904266 -4.260676
-3.0038536 -4.1945558 -6.4378915 -5.322756 -5.1629424 -5.342989 -5.6275287 -4.035025
-5.9536567 -4.9070086 -3.9573748 -5.271651 -6.012988 -5.650025 -3.6285236 -5.6907806
-5.8678946 -5.000558 -5.1109595 -2.9556906 -7.5004067 -4.600967 -5.7943892 -5.282018
-5.056158 -3.218911 -5.2022443 -5.25734 -6.2782 -5.1118574 -6.7285805 -6.3078284
-5.371598 -6.107806 -4.9300036 -4.9103107 -4.383938 -4.23771 -6.6155424 -3.884862
-4.196194 -4.105659 -4.492728 -6.2195096 -5.679954 -3.1375365 -4.5994024 -3.9625697
-4.8881025 -5.368986 -3.4448566 1.030752 0.79893744 -0.45553797 -0.33990481 0.42037332
0.013548003 -1.2303072 0.8273829 0.38494405 -0.9202631 -0.712488 -0.062964246 0.087812364
0.22106986 -0.5380641 -0.23102318 -0.3378218 0.47711083 0.449855 0.91830254 0.5426097
0.3734836 0.6454692 -0.20308807 -0.5532758 -0.4320461 0.27399984 -0.41159028 -0.2950346
-0.43103832 -0.16358753 0.010027867 -0.2264798 -0.022507403 0.60862184 0.00028645812 -0.33143649
0.60772496 -1.1243067 0.45621997 -1.381385 -0.724271 0.046834126 -0.3369259 -0.30722737
1.110191 -0.029532157 -0.5963958 -0.8611063 0.3164275 -0.20884156 -0.0094620595 -0.6503341
-0.23888473 0.13555579 -0.6891398 -0.9250511 0.8290503 -1.4133332 -0.39080322 0.80051714
