code/model/gpt.pt (torch, 944333 bytes, 210 tensors)

weight f4 [65, 48]
0	0x3b8dad03	0.004323603
1	0xbd2b595d	-0.04183327
2	0x3d3ed2d3	0.046587776
3	0xbdc83be5	-0.09777049
4	0x3d94299a	0.07234497
5	0x3d04362c	0.032278225
6	0x3d14c5d1	0.036321465
7	0x3d6d5eb0	0.05795163
8	0x3d3e5efe	0.04647731
9	0x3d07b12e	0.033127956
10	0xbc3aeaa1	-0.011408479
11	0xbd055924	-0.032555714
12	0x3d01e3dc	0.031711444
13	0xbd511f52	-0.05105526
14	0x3d05bce0	0.03265083
15	0x3c6e676a	0.014551023
16	0x3c9d4e08	0.019202247
17	0x3a3c0b57	0.00071733206
18	0xbd1c9758	-0.03823027
19	0x3bc0fd37	0.0058895606
20	0xbd073333	-0.03300781
21	0x3b95ef79	0.0045756665
22	0xbd33b8ef	-0.04387754
23	0xbd1ae598	-0.037816614
24	0xbc5de8df	-0.01354429
25	0x3d6ffb6b	0.05858938
26	0xbd355bcf	-0.04427701
27	0xbd00e0e6	-0.03146448
28	0x3cbc9631	0.023020836
29	0x3cd96cf7	0.026541216
30	0x3d7fb66b	0.062429827
31	0x3ce4a450	0.027910382
32	0xbd23397b	-0.03984974
33	0x3b8d8238	0.004318502
34	0xbd263938	-0.04058191
35	0x3d3c378e	0.04595142
36	0x3daf54ed	0.0856112
37	0x3d81907c	0.06326386
38	0xbc47bc7c	-0.012190934
39	0x3c607696	0.013700148
40	0xbbfc06b6	-0.0076912297
41	0xbc766422	-0.015038522
42	0xbc0743df	-0.008255928
43	0x3d9a124d	0.07523022
44	0x3c99d62b	0.018778881
45	0xbc885efd	-0.016646856
46	0xbcba0fd8	-0.022712633
47	0x3de50c85	0.111840285
48	0x3d0bc782	0.034125812
49	0xbd150cbb	-0.036389094
50	0xbd549164	-0.051896468
51	0xbc4f1c81	-0.012641073
52	0x3d07254d	0.032994557
53	0x3d61d54b	0.055135053
54	0xbce0a0b2	-0.027420375
55	0x3d8a3c40	0.06749773
56	0xbc4ab41f	-0.012372046
57	0x3d41264d	0.047155667
58	0xbd09cb35	-0.03364106
59	0xbd3f1b6d	-0.046657015
60	0xbcd157fa	-0.025554646
61	0xbcd5a541	-0.026079776
62	0xbb5d8280	-0.0033799708
63	0xbd815f4a	-0.06317003
64	0x3d4eb02b	0.050460976
65	0x3c3cb9b8	0.011518888
66	0xbbf6efcf	-0.0075359116
67	0x3d08c9b7	0.033395495
68	0xbd08f7dd	-0.033439506
69	0x3ae58f41	0.0017514006
70	0xbc8c508f	-0.017128257
71	0xbd0d4cfe	-0.034497254
72	0xbbea02f8	-0.007141467
73	0xbc92047b	-0.017824402
74	0x3d86ef6a	0.06588633
75	0x3d6a1f25	0.057158608
76	0x3d98d8b1	0.074632056
77	0xbbd83659	-0.0065982756
78	0x3ce3bfee	0.02780148
79	0xbc648d4f	-0.013949706
80	0xbc9a4687	-0.018832458
81	0x3c43bdc5	0.0119471
82	0x3c5c5e3a	0.0134502
83	0x3cdaffc8	0.026733294
84	0x3d1a71a2	0.037706025
85	0x3bbd7f7b	0.005783019
86	0xbd1b0d13	-0.037854265
87	0x3d35e56c	0.044408247
88	0xbbd8b99f	-0.0066139246
89	0x3c9f212b	0.019424995
90	0xbba3d289	-0.004999463
91	0xbc77f3c5	-0.015133803
92	0x3d6546c8	0.055975705
93	0xbd900441	-0.07032061
94	0xbc1f00b0	-0.009704754
95	0x3d64a225	0.055818696
96	0x3c23c203	0.0099949865
97	0x3b254e72	0.002522376
98	0xbd775454	-0.060383156
99	0x39f526bc	0.000467589
100	0xbb334984	-0.002735705
101	0xbd9c16ec	-0.076215595
102	0x3c53d1c9	0.012928435
103	0x3c492ef0	0.012279257
104	0x3ca5758d	0.020197654
105	0xbd5695aa	-0.052388825
106	0x3d3681be	0.044557326
107	0x3c258355	0.010102113
108	0x3c8c7b1b	0.017148545
109	0x3c1fecd3	0.009761053
110	0xba0c2432	-0.00053459697
111	0x3da5b62d	0.08091388
112	0x3d665eca	0.05624274
113	0x3c051378	0.0081223175
114	0x3c8688df	0.016422687
115	0x3b416ab8	0.0029513072
116	0x3d011968	0.03151837
117	0xbbfa5499	-0.0076394794
118	0xbd2be1e1	-0.04196346
119	0x3d1925fa	0.037389733
120	0x3d0f39c6	0.034967206
121	0xbca3ff8d	-0.020019317
122	0x3b86b30e	0.0041107005
123	0xbc881c41	-0.016615035
124	0xbd0a4af7	-0.0337629
125	0xbd4c5588	-0.049886256
126	0xbcc6336d	-0.024194444
127	0xbb82a715	-0.003987203
128	0xbd886f4f	-0.066618554
129	0x3d86f6ed	0.06590066
130	0xbc859f43	-0.016311293
131	0xbc403664	-0.011731718
132	0x3ce8549c	0.028360657
133	0xbc464e56	-0.012103638
134	0xbd755736	-0.059897624
135	0xbd07343c	-0.0330088
136	0x3c000821	0.007814438
137	0xbbd2e6ac	-0.0064361896
138	0xbd0a26c3	-0.033728372
139	0x3c97a888	0.01851298
140	0xbd550ca1	-0.052013997
141	0x3c022428	0.007943191
142	0x3cad797b	0.02117609
143	0xbc140e54	-0.009036619
144	0x3af2bfbd	0.0018520277
145	0x3c08f1fa	0.008358473
146	0x3cae1945	0.021252284
147	0x3cb92c4c	0.02260413
148	0x3bd57d87	0.006515208
149	0x3ce90f1a	0.028449584
150	0x3cf30963	0.029667562
151	0x3d0857a3	0.033286702
152	0xbadf38fc	-0.0017030532
153	0xbc26eb4e	-0.010187937
154	0xbbb313fe	-0.0054650297
155	0xbc331c54	-0.010932047
156	0x3c982ccf	0.018576054
157	0xbb318e79	-0.0027092977
158	0x3ca82cfa	0.020529259
159	0xbce479f5	-0.027890185
160	0x3cb19cdd	0.021681244
161	0x3cc6a74e	0.024249699
162	0x3c306b85	0.010767822
163	0xbca2e532	-0.01988468
164	0xbcc21b51	-0.023694666
165	0x3c58c779	0.013231152
166	0x3d1573c0	0.03648734
167	0x3c05ee80	0.008174539
168	0xbcc62ad1	-0.024190338
169	0x3b3a013c	0.0028382083
170	0xbaa9f693	-0.0012967162
171	0x3c4dd84e	0.012563778
172	0xbc8ce109	-0.017197149
173	0x3d08f80f	0.033439692
174	0x3c3f1214	0.011662025
175	0x3c26a173	0.010170328
176	0xbbe38c09	-0.0069441837
177	0x3c99c6d7	0.018771572
178	0xbc3aec48	-0.011408873
179	0x3b1e4aa1	0.002415337
180	0x3c2ced46	0.010554617
181	0x3b383b3b	0.0028111476
182	0xbcc4f4b3	-0.024042463
183	0x3b5c58d5	0.0033622284
184	0x3bf531bd	0.007482736
185	0x3b6d5583	0.00362143
186	0xbd10f4b7	-0.03538963
187	0xbc28ea99	-0.010309839
188	0xbbf9a11d	-0.007618083
189	0x3bf99f1a	0.0076178433
190	0x3a0268a8	0.00049747014
191	0x3d79d02e	0.06098955
192	0x3c7e5d41	0.015525163
193	0xba583d62	-0.0008248893
194	0x3c8fcae2	0.017552797
195	0x3c289935	0.010290434
196	0xbabc7765	-0.0014378844
197	0x3d19fdb4	0.037595466
198	0x3cb4080e	0.021976497
199	0x3d45deed	0.0483083
200	0x3c36322d	0.011120361
201	0x3c42d613	0.01189186
202	0xbc0b7957	-0.008512816
203	0xbaa52e4b	-0.0012602297
204	0x3caa21fb	0.020768156
205	0xbd35935d	-0.04432999
206	0xbc63d7da	-0.0139064435
207	0xbcb9afc4	-0.02266682
208	0x3cbed09d	0.023292834
209	0x3c917c00	0.017759323
210	0xbd2e9578	-0.042623013
211	0x3d0442fe	0.03229045
212	0xbcd48517	-0.025942368
213	0x3bcb264d	0.006199634
214	0xbd08e226	-0.033418797
215	0xbc905793	-0.017619884
216	0xbceeeab3	-0.029164648
217	0xb857ff56	-5.1497795e-05
218	0xbbda4b7c	-0.0066618305
219	0xbcddd4d1	-0.027079018
220	0x3c129fbd	0.008949217
221	0xbb19f47a	-0.0023491667
222	0x3c9019e0	0.017590463
223	0x3caddecd	0.021224404
224	0x3bbef1c9	0.005827163
225	0x3c20bcea	0.009810666
226	0xbbc990b8	-0.006151285
227	0xbcdc4c9f	-0.026892005
228	0x3c0ad7ab	0.008474271
229	0x3cbaaa3c	0.022786252
230	0x3cc295f8	0.023753151
231	0x3c0580dc	0.008148398
232	0xbd0324ca	-0.032017507
233	0xbd5d17bc	-0.053977713
234	0xbcc9a333	-0.024613952
235	0xbc807bf4	-0.015684105
236	0xbcba56b8	-0.022746429
237	0xbcbf84d9	-0.023378776
238	0x3c10b1d9	0.008831465
239	0x3c2467c0	0.010034502
240	0xbc76e662	-0.015069576
241	0x3ca06ea7	0.019584013
242	0xbc8782ed	-0.016541922
243	0xbc99d984	-0.018780477
244	0x3c74a007	0.014930732
245	0xbd67a80e	-0.056556754
246	0x3d6d69a8	0.05796209
247	0x3c861eb6	0.016372066
248	0xbc6342e5	-0.013870929
249	0x3cced878	0.025249705
250	0x3d93ae74	0.07211009
251	0xbc8ea4ec	-0.017412625
252	0x3d6f0010	0.05834967
253	0xbd6149fc	-0.055002198
254	0x3b7bcee5	0.003842288
255	0x3c8cbd90	0.017180234

weight f4 [32, 48]
0	0x3c7c56a6	0.015401518
1	0xbcab7241	-0.020928504
2	0xbd92f740	-0.071760654
3	0x3be22d10	0.0069023445
4	0x3d3de20f	0.046358164
5	0xbcca4ecc	-0.024695776
6	0xba2c7584	-0.00065787905
7	0x3b2ce085	0.0026378941
8	0x3c0dd59d	0.008656886
9	0x3de27180	0.11056805
10	0x3dd1b7d8	0.102401435
11	0x3d2c3d0c	0.042050406
12	0xbde26da8	-0.110560715
13	0xbda31dd3	-0.07964673
14	0x3d456a43	0.048197042
15	0xbd388767	-0.045051005
16	0xbcd9edbc	-0.026602618
17	0x3b241f5a	0.00250431
18	0x3dabccba	0.08388658
19	0x3d0959bb	0.03353284
20	0x3b94e58c	0.0045439657
21	0x3d46551d	0.048421014
22	0xbc9a6747	-0.018848075
23	0x3a9eb1f5	0.0012107479
24	0x3d10c8a5	0.0353476
25	0x3c72bb31	0.014815138
26	0xbd007217	-0.031358805
27	0x3b2b86c3	0.0026172854
28	0x3cb50dc2	0.022101287
29	0xbd2476c7	-0.040152337
30	0x3d0a829e	0.033815973
31	0x3d42bf1d	0.04754554
32	0xbd4fb932	-0.050713725
33	0xb89148cf	-6.9277005e-05
34	0x3d4c0350	0.049807847
35	0x3d950d3e	0.07277916
36	0x3d797ea5	0.060911793
37	0xbd22d92a	-0.039757885
38	0xbc16f20b	-0.009212981
39	0xbd27e6ea	-0.0409917
40	0xbc80274d	-0.01564374
41	0x3d50d8ff	0.050988194
42	0xbaf0771c	-0.0018346044
43	0x3da91b63	0.08257177
44	0xbd2ece7b	-0.042677384
45	0x3c7d360f	0.015454783
46	0xbce442a7	-0.027863814
47	0xbcb9ab2a	-0.022664625
48	0xbce84673	-0.028353905
49	0x3d22eb36	0.039775096
50	0x3d3d1548	0.046162874
51	0x3cb6af8b	0.022300502
52	0xb9a5963c	-0.00031583186
53	0x3c952b71	0.018209191
54	0xbc8c4d99	-0.017126845
55	0xbb8d46f5	-0.0043114373
56	0x3d2d3a8a	0.042292155
57	0xbc1d605c	-0.009605493
58	0x3d358343	0.044314634
59	0x3c650d33	0.013980198
60	0xbd9be1e9	-0.07611448
61	0xbd9b5359	-0.07584257
62	0x3c2dfa96	0.010618826
63	0x3bf9b3ce	0.0076203113
64	0x3c29dc5e	0.010367481
65	0xbd1eb442	-0.038746126
66	0x3d4b004b	0.049560826
67	0x3ba4ec90	0.0050330833
68	0x3ccaadbe	0.02474105
69	0x3cb56314	0.02214197
70	0x3d049564	0.032369033
71	0xbc1092ea	-0.00882409
72	0x3d885ed4	0.06658712
73	0x3bd8377b	0.0065984107
74	0x3d4310b6	0.04762336
75	0xbccd31b2	-0.02504811
76	0xbb9607bb	-0.0045785583
77	0xbc5fa125	-0.01364926
78	0xbd11c3cb	-0.035587113
79	0xba8ced4e	-0.0010751875
80	0xbd2be2bf	-0.04196429
81	0x3d10e83c	0.035377726
82	0x3d5c9ee3	0.053862464
83	0x3db07629	0.08616287
84	0x3d7ea710	0.062171042
85	0xbcd8aad6	-0.026448648
86	0x3c537877	0.012907139
87	0x3c6d30da	0.014476979
88	0x3d6274c9	0.055287156
89	0x3c8d4d35	0.01724873
90	0xbd425782	-0.047446735
91	0x3d7abfe7	0.06121817
92	0x3b6a0182	0.0035706465
93	0xbd30cb3a	-0.043162562
94	0xbccc5c7a	-0.02494644
95	0xbcb63f72	-0.02224705
96	0x3b0fe66e	0.0021957415
97	0x3cc041a4	0.0234688
98	0xbbf59030	-0.007493995
99	0x3b994d62	0.004678414
100	0xbb5dc0eb	-0.0033836912
101	0xbb492436	-0.003069175
102	0x3cd8b1fd	0.026452059
103	0x3bee9040	0.0072803795
104	0x3bd072b5	0.0063613304
105	0x3d208a31	0.03919429
106	0x3d4f47d1	0.0506056
107	0xbd3de8a1	-0.04636443
108	0xbd956416	-0.072944805
109	0xbcd0a535	-0.025469402
110	0xbd77e8ee	-0.060524873
111	0x3d227e4b	0.039671224
112	0x3aad79ee	0.001323519
113	0xbd6f9fda	-0.058502056
114	0xbbc11d39	-0.005893376
115	0x3c06f2f2	0.008236634
116	0x3c05db2c	0.00816993
117	0x3d48df6a	0.04904119
118	0xbd43f526	-0.047841214
119	0x3b540f30	0.0032357685
120	0x3d844224	0.06457928
121	0xbb396d5a	-0.0028293938
122	0x3cf05e55	0.029341856
123	0xbc519e63	-0.01279411
124	0x3d37992c	0.04482381
125	0xbce822c1	-0.028336884
126	0x3b0fcfae	0.0021943855
127	0x3a87ad20	0.0010351278
128	0x3d0abb1b	0.033869844
129	0x3d043394	0.03227575
130	0x3caabe9d	0.020842845
131	0x3d44376f	0.047904428
132	0x3c5277ff	0.012845992
133	0xbd2ff7df	-0.042960998
134	0x3bc9b4bd	0.006155579
135	0x3ac3ec61	0.0014947766
136	0xbbb793a2	-0.005602316
137	0x3c904aa5	0.017613718
138	0x3a513928	0.0007981234
139	0x3cda44be	0.026644107
140	0xbc97303b	-0.018455615
141	0x3b5029cf	0.00317632
142	0xbc9ba279	-0.018998371
143	0xbc884534	-0.016634561
144	0xbcf890a1	-0.030342402
145	0x3c6f5150	0.014606789
146	0xbcdb3c5b	-0.026762178
147	0x3ce98365	0.028505037
148	0xbb9ab62f	-0.004721425
149	0x3c964b9e	0.018346604
150	0xbb721d74	-0.0036943825
151	0xbcf2dc04	-0.029645927
152	0x3cd7b4fc	0.026331417
153	0x3cdf744d	0.027277136
154	0x3d2447df	0.040107604
155	0xbc91c34a	-0.017793316
156	0xbd5fdf47	-0.054656293
157	0xbce43f66	-0.027862262
158	0x3c128be4	0.008944485
159	0x3c1e9de8	0.0096812025
160	0x3ce57922	0.028011862
161	0xbc39fdda	-0.011352027
162	0x3c313a06	0.0108170565
163	0x3b09f52c	0.0021050675
164	0x3b872853	0.00412468
165	0x3c994ed8	0.018714353
166	0xbd192c58	-0.037395805
167	0xbbdc37a1	-0.0067204987
168	0x3d05dfe3	0.03268422
169	0x3d086b08	0.033305198
170	0xbc1e7395	-0.009671112
171	0x3b97728e	0.0046218103
172	0x3b1d7c5e	0.0024030427
173	0xbbba4e46	-0.0056856005
174	0xbbd94a53	-0.0066311746
175	0x3bb653ae	0.0055641746
176	0x3d699e3d	0.057035673
177	0x3d001c1a	0.0312768
178	0x3bd4f16c	0.0064985063
179	0x3d45323b	0.048143607
180	0x3d03cffa	0.032180764
181	0xbd2b7cc2	-0.041867025
182	0xbc34d87e	-0.011037944
183	0x3c4a6d16	0.01235511
184	0xbbcad415	-0.006189833
185	0xbc911734	-0.01771126
186	0x3b1766b0	0.0023101978
187	0x3938b41f	0.00017614708
188	0x3adb708e	0.0016741918
189	0xbbf4b745	-0.0074681365
190	0x3c28c523	0.010300907
191	0xbd2349cd	-0.039865304
192	0xbd75cd9a	-0.06001053
193	0x3cb5eccf	0.022207646
194	0x3c7354c0	0.014851749
195	0x3bc333e0	0.0059571117
196	0xbbbf8e95	-0.0058458545
197	0xbaad4ced	-0.0013221778
198	0x3b6d3e68	0.0036200527
199	0xbb5d30ba	-0.0033750967
200	0x3c878347	0.01654209
201	0x3ce18c3c	0.02753269
202	0x3c46f04e	0.012142254
203	0xba5d6db1	-0.0008446826
204	0xbda85fc0	-0.08221388
205	0xbcdbdfdb	-0.026840141
206	0x3aee7ac2	0.0018194544
207	0x3ca212f8	0.019784436
208	0x3b3b7fcb	0.0028610106
209	0x3c8f3529	0.017481403
210	0xbc5f11f0	-0.0136151165
211	0x3c512f12	0.01276757
212	0xb94dfbb4	-0.0001964409
213	0x3bd2e2f1	0.006435745
214	0xbca56afa	-0.020192612
215	0xbbd9a546	-0.0066420166
216	0x3d6b9f75	0.057525117
217	0xbc83e1a4	-0.016098805
218	0x3c175f6d	0.00923906
219	0x3c4bd306	0.012440449
220	0x3c1f9a1f	0.009741335
221	0x3ca59284	0.020211466
222	0xbc7cecc0	-0.015437305
223	0xbafa193c	-0.0019081007
224	0xbaa89db1	-0.0012864379
225	0x3cad9dbd	0.02119338
226	0x3bef19ec	0.0072967913
227	0x3d1ac3eb	0.0377845
228	0xbc68b14b	-0.014202426
229	0xbcf9d508	-0.030497089
230	0x3c26c0a2	0.010177763
231	0x3cef933f	0.029245017
232	0xbb1e79f2	-0.0024181572
233	0x3cb6da63	0.022320932
234	0x3c04cef8	0.008105986
235	0xbc3c13dc	-0.011479344
236	0xbcac54e3	-0.02103657
237	0xbc47dae9	-0.012198188
238	0xbc9e3e05	-0.019316683
239	0xbcb186e4	-0.021670766
240	0xbccb6299	-0.024827288
241	0x3c7b7656	0.015348038
242	0xbca463d7	-0.020067139
243	0x3ab04fbe	0.0013451499
244	0xbc8baf0d	-0.017051244
245	0x3c68ac94	0.014201302
246	0x3c6f3d3b	0.014602001
247	0xbcf9dc57	-0.030500574
248	0xbb1826dc	-0.0023216521
249	0x3ca0a10f	0.019608049
250	0x3c9463f1	0.018114062
251	0x3c8a76e3	0.016902393
252	0xbd2ae8bd	-0.041725863
253	0x3cf5cbb7	0.030004365
254	0xbcfb6687	-0.030688537
255	0xbb480bc5	-0.0030524593

tril f4 [32, 32]
0	0x3f800000	1.0
1	0x00000000	0.0
2	0x00000000	0.0
3	0x00000000	0.0
4	0x00000000	0.0
5	0x00000000	0.0
6	0x00000000	0.0
7	0x00000000	0.0
8	0x00000000	0.0
9	0x00000000	0.0
10	0x00000000	0.0
11	0x00000000	0.0
12	0x00000000	0.0
13	0x00000000	0.0
14	0x00000000	0.0
15	0x00000000	0.0
16	0x00000000	0.0
17	0x00000000	0.0
18	0x00000000	0.0
19	0x00000000	0.0
20	0x00000000	0.0
21	0x00000000	0.0
22	0x00000000	0.0
23	0x00000000	0.0
24	0x00000000	0.0
25	0x00000000	0.0
26	0x00000000	0.0
27	0x00000000	0.0
28	0x00000000	0.0
29	0x00000000	0.0
30	0x00000000	0.0
31	0x00000000	0.0
32	0x3f800000	1.0
33	0x3f800000	1.0
34	0x00000000	0.0
35	0x00000000	0.0
36	0x00000000	0.0
37	0x00000000	0.0
38	0x00000000	0.0
39	0x00000000	0.0
40	0x00000000	0.0
41	0x00000000	0.0
42	0x00000000	0.0
43	0x00000000	0.0
44	0x00000000	0.0
45	0x00000000	0.0
46	0x00000000	0.0
47	0x00000000	0.0
48	0x00000000	0.0
49	0x00000000	0.0
50	0x00000000	0.0
51	0x00000000	0.0
52	0x00000000	0.0
53	0x00000000	0.0
54	0x00000000	0.0
55	0x00000000	0.0
56	0x00000000	0.0
57	0x00000000	0.0
58	0x00000000	0.0
59	0x00000000	0.0
60	0x00000000	0.0
61	0x00000000	0.0
62	0x00000000	0.0
63	0x00000000	0.0
64	0x3f800000	1.0
65	0x3f800000	1.0
66	0x3f800000	1.0
67	0x00000000	0.0
68	0x00000000	0.0
69	0x00000000	0.0
70	0x00000000	0.0
71	0x00000000	0.0
72	0x00000000	0.0
73	0x00000000	0.0
74	0x00000000	0.0
75	0x00000000	0.0
76	0x00000000	0.0
77	0x00000000	0.0
78	0x00000000	0.0
79	0x00000000	0.0
80	0x00000000	0.0
81	0x00000000	0.0
82	0x00000000	0.0
83	0x00000000	0.0
84	0x00000000	0.0
85	0x00000000	0.0
86	0x00000000	0.0
87	0x00000000	0.0
88	0x00000000	0.0
89	0x00000000	0.0
90	0x00000000	0.0
91	0x00000000	0.0
92	0x00000000	0.0
93	0x00000000	0.0
94	0x00000000	0.0
95	0x00000000	0.0
96	0x3f800000	1.0
97	0x3f800000	1.0
98	0x3f800000	1.0
99	0x3f800000	1.0
100	0x00000000	0.0
101	0x00000000	0.0
102	0x00000000	0.0
103	0x00000000	0.0
104	0x00000000	0.0
105	0x00000000	0.0
106	0x00000000	0.0
107	0x00000000	0.0
108	0x00000000	0.0
109	0x00000000	0.0
110	0x00000000	0.0
111	0x00000000	0.0
112	0x00000000	0.0
113	0x00000000	0.0
114	0x00000000	0.0
115	0x00000000	0.0
116	0x00000000	0.0
117	0x00000000	0.0
118	0x00000000	0.0
119	0x00000000	0.0
120	0x00000000	0.0
121	0x00000000	0.0
122	0x00000000	0.0
123	0x00000000	0.0
124	0x00000000	0.0
125	0x00000000	0.0
126	0x00000000	0.0
127	0x00000000	0.0
128	0x3f800000	1.0
129	0x3f800000	1.0
130	0x3f800000	1.0
131	0x3f800000	1.0
132	0x3f800000	1.0
133	0x00000000	0.0
134	0x00000000	0.0
135	0x00000000	0.0
136	0x00000000	0.0
137	0x00000000	0.0
138	0x00000000	0.0
139	0x00000000	0.0
140	0x00000000	0.0
141	0x00000000	0.0
142	0x00000000	0.0
143	0x00000000	0.0
144	0x00000000	0.0
145	0x00000000	0.0
146	0x00000000	0.0
147	0x00000000	0.0
148	0x00000000	0.0
149	0x00000000	0.0
150	0x00000000	0.0
151	0x00000000	0.0
152	0x00000000	0.0
153	0x00000000	0.0
154	0x00000000	0.0
155	0x00000000	0.0
156	0x00000000	0.0
157	0x00000000	0.0
158	0x00000000	0.0
159	0x00000000	0.0
160	0x3f800000	1.0
161	0x3f800000	1.0
162	0x3f800000	1.0
163	0x3f800000	1.0
164	0x3f800000	1.0
165	0x3f800000	1.0
166	0x00000000	0.0
167	0x00000000	0.0
168	0x00000000	0.0
169	0x00000000	0.0
170	0x00000000	0.0
171	0x00000000	0.0
172	0x00000000	0.0
173	0x00000000	0.0
174	0x00000000	0.0
175	0x00000000	0.0
176	0x00000000	0.0
177	0x00000000	0.0
178	0x00000000	0.0
179	0x00000000	0.0
180	0x00000000	0.0
181	0x00000000	0.0
182	0x00000000	0.0
183	0x00000000	0.0
184	0x00000000	0.0
185	0x00000000	0.0
186	0x00000000	0.0
187	0x00000000	0.0
188	0x00000000	0.0
189	0x00000000	0.0
190	0x00000000	0.0
191	0x00000000	0.0
192	0x3f800000	1.0
193	0x3f800000	1.0
194	0x3f800000	1.0
195	0x3f800000	1.0
196	0x3f800000	1.0
197	0x3f800000	1.0
198	0x3f800000	1.0
199	0x00000000	0.0
200	0x00000000	0.0
201	0x00000000	0.0
202	0x00000000	0.0
203	0x00000000	0.0
204	0x00000000	0.0
205	0x00000000	0.0
206	0x00000000	0.0
207	0x00000000	0.0
208	0x00000000	0.0
209	0x00000000	0.0
210	0x00000000	0.0
211	0x00000000	0.0
212	0x00000000	0.0
213	0x00000000	0.0
214	0x00000000	0.0
215	0x00000000	0.0
216	0x00000000	0.0
217	0x00000000	0.0
218	0x00000000	0.0
219	0x00000000	0.0
220	0x00000000	0.0
221	0x00000000	0.0
222	0x00000000	0.0
223	0x00000000	0.0
224	0x3f800000	1.0
225	0x3f800000	1.0
226	0x3f800000	1.0
227	0x3f800000	1.0
228	0x3f800000	1.0
229	0x3f800000	1.0
230	0x3f800000	1.0
231	0x3f800000	1.0
232	0x00000000	0.0
233	0x00000000	0.0
234	0x00000000	0.0
235	0x00000000	0.0
236	0x00000000	0.0
237	0x00000000	0.0
238	0x00000000	0.0
239	0x00000000	0.0
240	0x00000000	0.0
241	0x00000000	0.0
242	0x00000000	0.0
243	0x00000000	0.0
244	0x00000000	0.0
245	0x00000000	0.0
246	0x00000000	0.0
247	0x00000000	0.0
248	0x00000000	0.0
249	0x00000000	0.0
250	0x00000000	0.0
251	0x00000000	0.0
252	0x00000000	0.0
253	0x00000000	0.0
254	0x00000000	0.0
255	0x00000000	0.0

weight f4 [8, 48]
0	0xbdaa5753	-0.08317437
1	0x3d08feb7	0.03344604
2	0xbd1f99cb	-0.038965028
3	0x3c5a856c	0.013337474
4	0xbd027fec	-0.031860277
5	0x3cae4f73	0.021278119
6	0x3d9fa5d5	0.07795302
7	0xbcc184d9	-0.023622917
8	0x3c0c2252	0.0085531045
9	0x3d9426c4	0.072339565
10	0x3d248bdd	0.040172447
11	0x3d149d3b	0.03628276
12	0xbe5ce9db	-0.21573584
13	0xbd8131fe	-0.063083634
14	0xbcb56f67	-0.022147847
15	0x3cd0d8cb	0.025494
16	0x3c8004be	0.015627261
17	0x3d1721e8	0.03689757
18	0x3cd95c95	0.026533404
19	0xbdba296c	-0.09089932
20	0x3d44bdd0	0.04803258
21	0x3c5a548b	0.013325821
22	0xbd2b5aac	-0.04183452
23	0xbd865733	-0.06559601
24	0x3e3fb170	0.18720031
25	0x3d8e0948	0.06935364
26	0xbc108ce2	-0.008822652
27	0x3c445474	0.011983026
28	0xbbcc3c6d	-0.0062327893
29	0x3c83406e	0.016021933
30	0xbb128d6a	-0.0022362121
31	0x3d56d538	0.052449435
32	0xbc70723e	-0.014675675
33	0x3db3b2ba	0.08774324
34	0xbca4afd8	-0.02010338
35	0x3e124d1c	0.14287227
36	0x3d72f5dc	0.0593165
37	0xbdf6a037	-0.12042277
38	0xbb78fcba	-0.0037992434
39	0xbcb1d233	-0.021706676
40	0x3b696cfa	0.0035617934
41	0xbc860e36	-0.016364198
42	0x3c177d5c	0.009246197
43	0x3d8c4764	0.06849554
44	0xbda6f7bf	-0.081527226
45	0xbc77c00d	-0.015121472
46	0xbdc3e580	-0.09565258
47	0xbd7e90e9	-0.062149916
48	0x3bd8911c	0.0066090953
49	0xbd030cae	-0.031994514
50	0x3bfbab57	0.0076803374
51	0xba7d0e5f	-0.00096533255
52	0xbd3abcb0	-0.045590103
53	0x3d2904e7	0.04126444
54	0xbd401723	-0.046897065
55	0xbd086146	-0.033295892
56	0xbd2d5211	-0.042314593
57	0x3d70c955	0.058785755
58	0xbc912c31	-0.017721267
59	0xbd1cc986	-0.038278125
60	0xbd4dba74	-0.050226644
61	0xbbab3e34	-0.005225921
62	0xbd2e7882	-0.042595394
63	0x3b59a3cf	0.003320921
64	0xbc83305a	-0.016014267
65	0xbb86177c	-0.004092155
66	0xbddf6dd1	-0.10909618
67	0x3909aae2	0.00013128997
68	0xbc113022	-0.008861573
69	0x3d2bd496	0.041950785
70	0x3cde2907	0.027119173
71	0xbc01667f	-0.007897972
72	0x3d27cf65	0.04096927
73	0xbc77c464	-0.015122507
74	0x3d2e97e8	0.042625338
75	0x3d9b0bf0	0.07570636
76	0x3c693d3b	0.01423579
77	0xbcd7a91f	-0.02632576
78	0xbc94f56e	-0.018183436
79	0xbc327b4e	-0.010893656
80	0x3d16be85	0.036802787
81	0x3d0f364b	0.034963887
82	0x3ce18354	0.027528442
83	0x3dad3dd7	0.08459061
84	0xbd436943	-0.047707807
85	0xbd9e2ec4	-0.077237636
86	0xbcbc727a	-0.023003805
87	0x3d07b8ad	0.033135105
88	0xbd1bfe4e	-0.03808432
89	0x3c6ed698	0.01457753
90	0x3da746b2	0.08167781
91	0xbcf59a81	-0.0299809
92	0x3d1cf766	0.038321875
93	0x3cbd133e	0.023080464
94	0xbdc25e93	-0.09490695
95	0x3c935436	0.01798449
96	0xbc6f7f44	-0.014617745
97	0x3c4729b5	0.01215594
98	0xbd011fb8	-0.03152439
99	0x3cbdeddb	0.023184707
100	0xbce6af48	-0.028159752
101	0xbcd39820	-0.025829375
102	0x3a148386	0.00056653505
103	0x3cfd6dd2	0.030936155
104	0x3d274174	0.040833905
105	0xbe068693	-0.13137273
106	0x3cf32cbb	0.029684415
107	0x3dc1c9b8	0.09462303
108	0x3d5b214d	0.053498555
109	0x3d349061	0.044083003
110	0x3cc726c3	0.024310475
111	0x3dba4503	0.09095194
112	0x3c199491	0.0093738
113	0x3bcd252f	0.006260536
114	0x3cd8cf2e	0.026465978
115	0xbcc1692a	-0.023609716
116	0x3d788ee6	0.060683154
117	0x3d211206	0.03932383
118	0xbcfb43bc	-0.030671947
119	0xbcbb925c	-0.022896938
120	0xbd9689fd	-0.07350538
121	0xbcb9c5db	-0.022677353
122	0xbd8e6569	-0.06952936
123	0xbd83c39a	-0.064337924
124	0xbd8b1382	-0.0679083
125	0xbc9f992d	-0.01948222
126	0xbcd16280	-0.025559664
127	0x3cb9c66e	0.022677626
128	0xbd56c9c4	-0.052438512
129	0x3cef2044	0.02919019
130	0xbce4e652	-0.027941857
131	0xbcea8572	-0.028628085
132	0xbca1259d	-0.019671256
133	0x3d59b4b1	0.053150836
134	0x3bb09057	0.0053883004
135	0xbc8e5ad6	-0.017377298
136	0x3c477352	0.012173491
137	0xbd01c923	-0.03168596
138	0xbd3d24bf	-0.046177622
139	0xbca6abe9	-0.020345645
140	0x3c96173a	0.018321622
141	0xbcaba001	-0.02095032
142	0x3d7d0a01	0.06177712
143	0x3b7da9a0	0.003870584
144	0x3d930761	0.07179142
145	0xbd7198df	-0.05898368
146	0x3d5862dd	0.05282866
147	0xbdba7fa3	-0.09106376
148	0x3d8a7c12	0.06761946
149	0xbdaa9179	-0.08328528
150	0xbc0aba5e	-0.008467285
151	0x3d070d45	0.03297164
152	0x3d6cdcb8	0.05782768
153	0xbd98aac2	-0.074544445
154	0xbdb9ddb2	-0.09075488
155	0x3ca4543e	0.020059701
156	0x3e1b56e9	0.15169872
157	0x3da5c20a	0.08093651
158	0x3d1a9943	0.037743818
159	0x3d993ed8	0.074826896
160	0x3b442038	0.002992643
161	0x3b51f412	0.0032036346
162	0x3d06d31c	0.032916173
163	0xbcf8f83b	-0.030391803
164	0xbceb3dce	-0.028715994
165	0x3b957faa	0.004562338
166	0x3c31391e	0.01081684
167	0xbbd330e8	-0.006445039
168	0xbe1d8ecc	-0.15386504
169	0xbc92d1fd	-0.017922396
170	0xbba4ad4d	-0.005025542
171	0xbcda7bcb	-0.026670357
172	0xbdabca55	-0.08388201
173	0xbcbe1ce2	-0.023207132
174	0x3c219d04	0.009864096
175	0x3c7f33ca	0.015576312
176	0xbd9c6f5a	-0.07638426
177	0xb9aa40a8	-0.000324731
178	0xbccc985a	-0.02497499
179	0xbe13d476	-0.14436516
180	0x3d05ade6	0.032636546
181	0x3dc0bf87	0.09411531
182	0xba32c5af	-0.0006819618
183	0xbd89e619	-0.06733341
184	0x3d649f46	0.055815957
185	0x3d58e780	0.05295515
186	0xbd8dd80c	-0.06925973
187	0x3c5cac38	0.0134687945
188	0x3da0a421	0.07843805
189	0x3c292056	0.010322651
190	0x3e0b2949	0.13589968
191	0x3dd5173f	0.104048245
192	0x3db473c6	0.088111445
193	0xbca2baaf	-0.019864408
194	0x3c28a931	0.010294245
195	0xbd068d70	-0.03284973
196	0x3d773f9d	0.0603634
197	0xbca6d2e6	-0.020364236
198	0xbc019e81	-0.007911325
199	0x3d13a58c	0.03604655
200	0x3c11aa6e	0.008890731
201	0xbd5070d1	-0.05088884
202	0xbdb16a20	-0.0866282
203	0xbd2e5f9f	-0.04257166
204	0x3e4c2ca9	0.19938911
205	0x3dd14113	0.1021749
206	0xbd02f604	-0.0319729
207	0xbd6f2532	-0.05838508
208	0xbbe39288	-0.006944958
209	0xbcd3e0f1	-0.025864096
210	0xbd491e03	-0.049100887
211	0x3c027b28	0.007963933
212	0xbc35dd9a	-0.011100197
213	0x3c2b9537	0.010472587
214	0x3dae205f	0.08502268
215	0x3d35ff61	0.044433
216	0xbe40d087	-0.18829547
217	0xbd9ef4ae	-0.07761513
218	0x3c8ebef7	0.017425044
219	0x3cc92d28	0.024557665
220	0xbc18f35e	-0.009335367
221	0x3cec3c5b	0.028837373
222	0x3d015ea9	0.031584416
223	0x3ba76fd9	0.005109769
224	0xbd0dd895	-0.034630377
225	0xbe0e488a	-0.13894859
226	0x3cae9937	0.021313293
227	0xbe1aec92	-0.15129307
228	0xbd92b52d	-0.07163463
229	0x3d9ab53d	0.075541
230	0x3b3dffd0	0.0028991587
231	0xbbf9eea2	-0.007627324
232	0xbbc2d345	-0.0059455954
233	0x3c810788	0.015750661
234	0x3d20d4bb	0.039265376
235	0x3d111a90	0.035425723
236	0x3da72397	0.08161085
237	0xbc43ad2e	-0.011943145
238	0x3dee8acc	0.11647567
239	0x3d4efad1	0.050532166
240	0x3d1222ba	0.03567765
241	0xbcb726f5	-0.022357443
242	0xbce9562a	-0.028483469
243	0xbd8f76c7	-0.07005077
244	0x3db4806d	0.08813558
245	0xbc9e7e9e	-0.019347485
246	0x3cd91b01	0.026502134
247	0x3d1cbbe6	0.03826513
248	0x3d82f5bc	0.06394526
249	0xbc460e3a	-0.012088353
250	0xbd44ea88	-0.04807523
251	0x3ab863cc	0.0014067828
252	0x3e2ed420	0.17073107
253	0x3ddbaf1e	0.1072676
254	0x3bac641e	0.0052609583
255	0x3b2ece5c	0.0026673293

weight f4 [8, 48]
0	0xbe0d2d60	-0.1378684
1	0x3a58c44d	0.0008268997
2	0x3c81c98b	0.015843173
3	0xbdf1d748	-0.1180864
4	0x3cfe2689	0.031024234
5	0xbdedce10	-0.11611569
6	0xbd7c0e5f	-0.061537143
7	0x3c0e0863	0.008668992
8	0x3d43ac6d	0.04777186
9	0xbd81652a	-0.06318124
10	0x3e371ef6	0.17882904
11	0x3e045270	0.12922072
12	0x3d3a1be7	0.045436766
13	0xbe1f7533	-0.15572052
14	0xbde3944b	-0.11112269
15	0x3df27f47	0.118406825
16	0x3d4aad07	0.049481418
17	0x3cc02893	0.023456847
18	0x3dcd6a9e	0.10030101
19	0x3d95ce0f	0.07314693
20	0x3d8175b4	0.06321278
21	0x3e3610e5	0.17779882
22	0xbe138b16	-0.14408526
23	0x3d783f4d	0.060607243
24	0x3d86acac	0.06575903
25	0x3dd06a7e	0.10176562
26	0xbe1832e0	-0.14863157
27	0xbd1eed5c	-0.038800582
28	0xbc4e21b6	-0.0125812795
29	0xbd088862	-0.03333319
30	0xbe206338	-0.15662849
31	0xbd8a4833	-0.06752052
32	0xbd508fe1	-0.050918464
33	0xbbbd004b	-0.005767857
34	0xbd922de3	-0.071376584
35	0x3e12d56a	0.14339224
36	0x3dfa9fe4	0.12237528
37	0xbdf69240	-0.12039614
38	0xbe1692b1	-0.14704396
39	0x3d64a20a	0.055818595
40	0x3c43e1a2	0.0119556505
41	0xbd280609	-0.04102138
42	0xbdb0119e	-0.0859711
43	0x3e483c70	0.19554305
44	0xbbc14f5a	-0.005899352
45	0x3e1804ec	0.14845628
46	0xbd173f7d	-0.03692578
47	0xbdd891ad	-0.105746605
48	0x3ae8bd46	0.0017756603
49	0x3d798a82	0.060923107
50	0xbc59db82	-0.013296964
51	0x3dc77163	0.09738424
52	0xbc8c44a2	-0.01712257
53	0xbc1ddbe4	-0.009634946
54	0xbd1dcb58	-0.038524
55	0xbda954ac	-0.08268103
56	0xbd1b5b20	-0.0379287
57	0x3b2ca772	0.0026344922
58	0x3d99926a	0.074986294
59	0x3da1ea3d	0.079060055
60	0xbd2eefb4	-0.042709067
61	0x3bca38c4	0.006171318
62	0xbc5bf10c	-0.013424169
63	0x3d06bfc6	0.032897733
64	0x3d3474ec	0.044056818
65	0x3ca69641	0.020335319
66	0x3c787b41	0.015166105
67	0xbd02d098	-0.03193721
68	0x3c56d99a	0.013113404
69	0xba996ff8	-0.0011706343
70	0x3d68fdf7	0.056882825
71	0xbc488ca3	-0.012240562
72	0x3d4ba746	0.04972007
73	0x3d177df2	0.036985345
74	0xbdbaa640	-0.09113741
75	0xbcc4cc82	-0.024023298
76	0xbcc3b25e	-0.023888763
77	0xbc6fc7a5	-0.014635001
78	0xbca325d0	-0.019915491
79	0xbbd13053	-0.0063839345
80	0x3d79c3f0	0.060977876
81	0x3b835a25	0.004008549
82	0x3c14aa0a	0.009073744
83	0xbbd45df4	-0.0064809266
84	0xbd394979	-0.045236085
85	0xbd5db175	-0.054124314
86	0xbc149908	-0.009069689
87	0xbcb1d963	-0.021710103
88	0x3c94ab72	0.018148158
89	0xbd4079fa	-0.046991326
90	0xbcac36c8	-0.021022215
91	0x3be2454c	0.0069052335
92	0xbc002892	-0.007822173
93	0x3c16d6d5	0.009206493
94	0xbc9c02fa	-0.019044388
95	0xbda1c989	-0.07899768
96	0xbc348d0e	-0.011019958
97	0xbdcbd182	-0.0995207
98	0xbc6ff7e6	-0.014646506
99	0xbc928867	-0.017887307
100	0x3d81749d	0.0632107
101	0x3db06d79	0.0861463
102	0xbcdb5dfb	-0.026778212
103	0x3d575b58	0.052577347
104	0x3b9ba1ba	0.004749504
105	0x3cb9f926	0.022701811
106	0xbdd60453	-0.104500435
107	0xbdf9fb30	-0.12206113
108	0xbc86989b	-0.01643019
109	0xbb724935	-0.0036969904
110	0x3d2db16b	0.042405527
111	0x3abdd387	0.0014482596
112	0x3d3f6a1b	0.04673205
113	0xbccf61d3	-0.0253152
114	0xbda6b57d	-0.08140085
115	0x3d6ea60c	0.058263823
116	0xbd065194	-0.032792643
117	0x3d0e45c2	0.034734495
118	0xbc0e2e22	-0.008677991
119	0xbd19a714	-0.037512854
120	0x3cda3262	0.026635353
121	0xbd0cf3f0	-0.034412324
122	0x3b563c39	0.0032689704
123	0x3d5aabac	0.053386375
124	0x3dc1d23e	0.09463929
125	0x3b48809a	0.003059423
126	0x3d36af8e	0.044601016
127	0xbd20aa99	-0.039225195
128	0x3cfadf26	0.030623984
129	0xbd1bef12	-0.038069792
130	0xbd230a64	-0.03980483
131	0x3d63b523	0.055592667
132	0xbae0eac3	-0.0017159808
133	0xbbc11fda	-0.0058936896
134	0xbd168650	-0.036749184
135	0x3cd4a045	0.025955329
136	0x3d2086e5	0.039191145
137	0xbc575306	-0.013142353
138	0xbd0ef10a	-0.03489784
139	0xbc9ffb96	-0.019529145
140	0xbbcc8bce	-0.006242252
141	0xbd176ff6	-0.03697201
142	0xbc4ae28d	-0.0123831155
143	0x3d778d65	0.06043758
144	0x3d260d48	0.04054001
145	0xbdbf14da	-0.09330149
146	0xbc34baf8	-0.011030905
147	0x3d040522	0.032231458
148	0x3c6f5df0	0.014609799
149	0x3d5f6c4b	0.054546636
150	0x3df5a2c0	0.11993933
151	0x3d6e2cbc	0.05814813
152	0xbd14839c	-0.036258325
153	0x3d338025	0.04382338
154	0xbde374cf	-0.11106264
155	0xbdfeabcb	-0.12435111
156	0x3c561323	0.013066086
157	0x3cbf9d86	0.023390543
158	0x3dc12374	0.0943059
159	0xbd7c0d28	-0.061535984
160	0x3bf2c834	0.00740912
161	0xbd1a0a31	-0.037607376
162	0xbe002322	-0.12513402
163	0x3d4d380d	0.050102282
164	0xbd71853b	-0.05896495
165	0xbdfe0464	-0.12403181
166	0x3c706dcb	0.014674614
167	0xbdb20374	-0.08692065
168	0xbd1cadbe	-0.03825163
169	0xbd429334	-0.047503665
170	0x3d6fe97e	0.058572285
171	0x3d43a919	0.047768686
172	0xbc0a6f7d	-0.008449432
173	0x3cb1c156	0.021698635
174	0x3da91b49	0.08257157
175	0x3d4cbd10	0.04998499
176	0xbbc81250	-0.0061056986
177	0xbb53d880	-0.003232509
178	0xbc8600ff	-0.016357897
179	0xbded6893	-0.115922116
180	0xbc8fd58e	-0.017557885
181	0x3dab1541	0.08353663
182	0x3d027534	0.031850055
183	0xbcd54d8a	-0.02603795
184	0xbd04e4c0	-0.032444715
185	0xbc0b5dae	-0.008506222
186	0x3d3946e9	0.04523364
187	0xbd4e6f69	-0.050399218
188	0xb9e65522	-0.00043932447
189	0xbdc4775c	-0.095930785
190	0x3d8703d4	0.06592527
191	0x3e1b979f	0.15194558
192	0x3daaf48d	0.083474256
193	0xbd55d7a3	-0.0522076
194	0xbd5fdb83	-0.054652702
195	0x3e0043fc	0.12525934
196	0xbe083349	-0.13300814
197	0x3dea525a	0.114414886
198	0x3cd6aabf	0.026204465
199	0xbda2c861	-0.079483755
200	0xbd0b5f59	-0.034026477
201	0x3c699c50	0.014258459
202	0xbdd6a4c0	-0.10480642
203	0xbde0adbe	-0.10970639
204	0xbc0bfcda	-0.008544171
205	0x3e0d0d60	0.13774633
206	0x3e0a9204	0.13532263
207	0xbdc2a4c4	-0.09504083
208	0xbd665eb1	-0.05624265
209	0x3b9ef35e	0.004850789
210	0xbde9d988	-0.11418444
211	0xbd0e6d3a	-0.034772135
212	0xbdeeef9c	-0.116667956
213	0xbe2f5068	-0.17120516
214	0x3e178ced	0.14799853
215	0xbc9b39b1	-0.018948408
216	0xbda95f18	-0.08270091
217	0xbdc818a3	-0.09770324
218	0x3e097e05	0.13426979
219	0x3d57094e	0.052499108
220	0xbba44bfa	-0.00501394
221	0xbc051557	-0.008122764
222	0x3e1319f6	0.14365372
223	0x3dba844b	0.09107264
224	0x3d80a42f	0.062813155
225	0x3c8ae393	0.016954219
226	0x3d788e23	0.060682427
227	0xbe55f585	-0.2089444
228	0xbe39b8fb	-0.1813697
229	0x3e0c9942	0.13730338
230	0x3e36f8c3	0.17868333
231	0xbdcb1486	-0.09916024
232	0x3d0ed94a	0.03487519
233	0x3da891ed	0.08230958
234	0x3d953b4d	0.07286701
235	0xbe261672	-0.162195
236	0xbcd9a6f3	-0.026568865
237	0xbdc7f24e	-0.09763013
238	0x3dce426f	0.10071265
239	0x3e0445ef	0.12917303
240	0x3dad93b0	0.08475435
241	0xbd6570eb	-0.05601589
242	0x3c81a481	0.015825512
243	0x3ba24895	0.0049525
244	0x3d004477	0.031315293
245	0x3d88eb71	0.06685532
246	0x3d49d713	0.049277376
247	0x3d0ae7bf	0.033912417
248	0xbd46e9b5	-0.048562724
249	0x3c2a253d	0.010384855
250	0xbdc068aa	-0.09394963
251	0xbc7a11eb	-0.015263061
252	0x3c96d054	0.018409885
253	0x3d5c4df2	0.053785272
254	0x3d8aa4d3	0.06769719
255	0xbc317008	-0.010829933

weight f4 [8, 48]
0	0x3cb2bb65	0.021817872
1	0xbcb15033	-0.021644687
2	0xbb86b442	-0.004110844
3	0xbcc2fabd	-0.023801202
4	0x3d1017b0	0.03517884
5	0xbaa9ce61	-0.0012955182
6	0xbd5e3e14	-0.05425842
7	0x3cef95c2	0.029246215
8	0xbd322288	-0.043489963
9	0x3b0cb9b6	0.0021472997
10	0xbc40b03d	-0.0117607685
11	0xb9dbfe48	-0.0004196039
12	0xbb865940	-0.004099995
13	0xbccd8574	-0.02508805
14	0x3c6e9518	0.014561914
15	0x3c853aed	0.01626345
16	0xbd1f3f08	-0.03887847
17	0x3ccb9ad8	0.024854109
18	0xbc3517ef	-0.0110530695
19	0xbbeafeae	-0.0071714735
20	0x3caf7fbb	0.021423211
21	0xbcac9593	-0.021067416
22	0xbc739022	-0.014865907
23	0xbc85a1a3	-0.016312426
24	0x3cc097ba	0.023509849
25	0x3d32fee2	0.043700106
26	0x3d425c77	0.047451463
27	0x3b3b00dd	0.002853445
28	0xbc6aa59d	-0.014321712
29	0xbc3046d7	-0.010759077
30	0x3c9c43e3	0.01907534
31	0xbc0d36ca	-0.00861902
32	0xbcb4fd74	-0.022093512
33	0x3b57dbcd	0.0032937408
34	0xbadce223	-0.0016852062
35	0x3bb8a180	0.0056344867
36	0x3d311e65	0.043241877
37	0x3c617696	0.013761183
38	0xbb79284b	-0.0038018401
39	0x3d0e9779	0.034812424
40	0x3c28d396	0.010304352
41	0xbcff7d3d	-0.031187648
42	0xbc05f01f	-0.008174925
43	0x3cdb25ac	0.026751362
44	0xba3fe402	-0.00073200476
45	0xbced819b	-0.028992465
46	0xbaf3baa6	-0.0018595054
47	0x3cc7d1fd	0.024392122
48	0x3be433f7	0.0069642025
49	0xb923a08a	-0.00015604697
50	0x3c55ab9c	0.013041403
51	0x3c3cb0e7	0.011516786
52	0xbcb6d0a3	-0.022316283
53	0xbd301812	-0.042991705
54	0xbd0a1cc8	-0.033718854
55	0xbc97f53e	-0.018549558
56	0x3be7c2b9	0.0070727733
57	0x3b9e6b53	0.0048345714
58	0xbc5837b4	-0.013196874
59	0xbb9b2c0f	-0.004735477
60	0x39c19f98	0.00036930735
61	0x3c8c9ea7	0.017165495
62	0xbacdfef0	-0.0015716236
63	0x3b785b5e	0.0037896256
64	0xbbfbe3c9	-0.007687066
65	0x3a8142bc	0.0009861807
66	0x3c93c70c	0.018039249
67	0xbd07b346	-0.033129953
68	0x3d81c402	0.06336214
69	0xba1fe304	-0.00060991966
70	0xbcef8346	-0.0292374
71	0x3d72d103	0.05928136
72	0x3d01e29c	0.031710252
73	0x3b7f2811	0.0038933794
74	0xbcf0d2ad	-0.029397333
75	0x3c8663f8	0.01640509
76	0xbbfa33f9	-0.00763559
77	0x3c63f479	0.013913267
78	0xbcece776	-0.028918963
79	0xbc8140bc	-0.015777938
80	0x3be375bd	0.0069415257
81	0xbbdd83d3	-0.0067600994
82	0xbbae0e23	-0.005311744
83	0x3c2f07e6	0.0106830355
84	0x3c719e42	0.014747204
85	0x3ba7cd9a	0.005120945
86	0xbd25952e	-0.040425472
87	0xbd2941de	-0.04132258
88	0x3ceae75b	0.028674772
89	0x3d079413	0.0331002
90	0xbcd9ece3	-0.026602214
91	0xbc6bfa56	-0.014402946
92	0xbd1bba2c	-0.038019344
93	0x3d05334a	0.032519616
94	0xbb04e606	-0.0020278706
95	0xbd186d2d	-0.037213493
96	0xbc0c1e8a	-0.008552203
97	0xbca38899	-0.019962596
98	0x3c1209d3	0.008913475
99	0x3caf509f	0.021400748
100	0x3c612d88	0.013743766
101	0x3ca5992c	0.02021464
102	0x3d04d9e3	0.032434355
103	0x3c08e0d4	0.008354384
104	0x3d5017e1	0.050804023
105	0xbc05a881	-0.00815785
106	0x3b5bde1f	0.0033549143
107	0x3c9dd8da	0.019268442
108	0xbcdb3bf4	-0.026761986
109	0xbbcbd276	-0.0062201573
110	0x3cb1b2da	0.021691728
111	0xbd1c6056	-0.03817781
112	0xbc57c3e9	-0.013169267
113	0xbd0a30cb	-0.03373794
114	0x3bfceef6	0.007718916
115	0x3b704b76	0.0036666072
116	0xbd6fdd92	-0.058560915
117	0xbb011f40	-0.0019702464
118	0x3cc6df58	0.02427642
119	0x3d021e36	0.031767093
120	0xbbc22c18	-0.0059256665
121	0xbcd48193	-0.025940692
122	0x3c0203a2	0.007935436
123	0xbcd8b964	-0.026455589
124	0xbd1a27fc	-0.03763579
125	0x3d15cda6	0.036573075
126	0x3d13e379	0.036105607
127	0xbc310b69	-0.010805943
128	0xbabfb84e	-0.0014627071
129	0x3d87a057	0.06622379
130	0xbcc27559	-0.023737596
131	0x3bb15102	0.005411268
132	0x3c03f90e	0.008054985
133	0x3d021b1c	0.031764135
134	0xbc909fa0	-0.01765424
135	0x3bc90cbd	0.0061355517
136	0x3c293d9f	0.010329633
137	0x3ced064b	0.028933665
138	0xbc1a87cc	-0.009431791
139	0xbca37abb	-0.019955983
140	0x3b978bf4	0.004624838
141	0x3bf3cc1b	0.0074401028
142	0xbce0c0e6	-0.027435731
143	0x3bc649c0	0.006051272
144	0x3c0d1ec2	0.00861329
145	0x3d5077a8	0.050895363
146	0xbb91407b	-0.0044327355
147	0xba204693	-0.0006114032
148	0xbc5f40fd	-0.013626334
149	0xbbe8de67	-0.0071065906
150	0xbc47368b	-0.012159
151	0xbd6f5cfe	-0.058438294
152	0x3bc2448b	0.005928581
153	0x3bf5e7ed	0.0075044543
154	0xbb75f8ae	-0.0037532258
155	0xbca5188d	-0.020153308
156	0xbb630fcc	-0.0034646867
157	0x39ce7d4b	0.00039384732
158	0xbd385017	-0.044998255
159	0x3c26914d	0.010166478
160	0xbcc1e935	-0.023670772
161	0xbc787edc	-0.015166964
162	0x3c67e07b	0.014152641
163	0xbd280c93	-0.041027617
164	0x3c59fd1b	0.013304974
165	0xbd025ad9	-0.03182492
166	0x3d408ff0	0.04701227
167	0xba4cbd62	-0.00078102027
168	0xbc88bd41	-0.016691806
169	0xbca226c8	-0.019793883
170	0xbcefaea6	-0.029258084
171	0xbd576183	-0.05258323
172	0x3bf31562	0.0074183205
173	0x3cb2e7a7	0.021838976
174	0xbcb99ebd	-0.0226587
175	0x3c81a178	0.015824065
176	0x3cd77f26	0.026305746
177	0xbd3bae01	-0.04582024
178	0x3cd2adaf	0.025717584
179	0xbce92ace	-0.028462794
180	0xbb9907c8	-0.004670117
181	0xbd2d4dcf	-0.042310532
182	0x3d36eb03	0.04465772
183	0x3c3a955a	0.011388147
184	0xbcb08122	-0.02154595
185	0xbc233d9d	-0.00996342
186	0x3d7014f0	0.058613718
187	0x3c9f3d9b	0.019438555
188	0x3c8decf7	0.017324908
189	0x3bc0cbda	0.005883676
190	0x3c50da8f	0.012747421
191	0x3c1ae670	0.009454355
192	0x3d0384d9	0.032109115
193	0xbd1f5faf	-0.03890961
194	0xbc94ca64	-0.018162914
195	0x3c0cc0e0	0.008590907
196	0x3cf6c9ae	0.030125465
197	0x3cc52dce	0.024069693
198	0x3ad8f26c	0.001655174
199	0xbd1161b8	-0.035493582
200	0xbc1c6567	-0.009545661
201	0xbd0897dc	-0.03334795
202	0xbcc0f321	-0.023553433
203	0xbd1d164b	-0.03835134
204	0xbbf48a74	-0.007462794
205	0x3c377bf4	0.011198986
206	0x3c07db1b	0.008291985
207	0x3ce9dfb6	0.028549057
208	0x3d06524b	0.032793324
209	0xbb990e18	-0.0046708696
210	0x3c1d8ec1	0.009616555
211	0xbc926421	-0.01787001
212	0xbd19812a	-0.037476696
213	0xbd3adef0	-0.045622766
214	0xbc18db99	-0.0093297
215	0xbd1faa98	-0.03898105
216	0xbc7f37c2	-0.015577259
217	0xbcaf465a	-0.02139585
218	0x3c2d7da2	0.010589035
219	0x3d0a307e	0.033737652
220	0x3d6a12a7	0.057146695
221	0x3b9e14eb	0.004824271
222	0xbc1d0233	-0.009583044
223	0xbbb9f19a	-0.005674553
224	0xbc8f95f8	-0.017527565
225	0xbb16bed0	-0.0023001917
226	0x3cb0e9bb	0.021595826
227	0x3cfc906a	0.03083058
228	0xbbb0ccf6	-0.005395527
229	0xbc4b6b63	-0.01241574
230	0xbbfe11c9	-0.007753585
231	0x3bd7dffe	0.0065879812
232	0xba7d8e93	-0.00096724293
233	0x3c79c7bf	0.015245377
234	0x3a9db7a3	0.0012032877
235	0xbb0f4c46	-0.002186553
236	0x3d5911f0	0.052995622
237	0xbc6fd975	-0.014639248
238	0x3a8046b8	0.0009786701
239	0x3c58ffe6	0.013244605
240	0x3b2a8036	0.002601636
241	0xbc0f67b7	-0.008752755
242	0x3d3767c8	0.044776708
243	0xbbcde2e1	-0.0062831496
244	0x3d703ba7	0.05865064
245	0x3d8b0dd6	0.06789748
246	0x3c039b12	0.008032577
247	0xbb4feb15	-0.0031725813
248	0xb80fd6b8	-3.429383e-05
249	0xbaa40a08	-0.0012515197
250	0xbc856a3e	-0.016286012
251	0x3c55cc6c	0.013049226
252	0x3ac2809d	0.0014839355
253	0xbc481d57	-0.012214026
254	0xbd1ee28a	-0.038790263
255	0xbd3814a9	-0.044941578

tril f4 [32, 32]
0	0x3f800000	1.0
1	0x00000000	0.0
2	0x00000000	0.0
3	0x00000000	0.0
4	0x00000000	0.0
5	0x00000000	0.0
6	0x00000000	0.0
7	0x00000000	0.0
8	0x00000000	0.0
9	0x00000000	0.0
10	0x00000000	0.0
11	0x00000000	0.0
12	0x00000000	0.0
13	0x00000000	0.0
14	0x00000000	0.0
15	0x00000000	0.0
16	0x00000000	0.0
17	0x00000000	0.0
18	0x00000000	0.0
19	0x00000000	0.0
20	0x00000000	0.0
21	0x00000000	0.0
22	0x00000000	0.0
23	0x00000000	0.0
24	0x00000000	0.0
25	0x00000000	0.0
26	0x00000000	0.0
27	0x00000000	0.0
28	0x00000000	0.0
29	0x00000000	0.0
30	0x00000000	0.0
31	0x00000000	0.0
32	0x3f800000	1.0
33	0x3f800000	1.0
34	0x00000000	0.0
35	0x00000000	0.0
36	0x00000000	0.0
37	0x00000000	0.0
38	0x00000000	0.0
39	0x00000000	0.0
40	0x00000000	0.0
41	0x00000000	0.0
42	0x00000000	0.0
43	0x00000000	0.0
44	0x00000000	0.0
45	0x00000000	0.0
46	0x00000000	0.0
47	0x00000000	0.0
48	0x00000000	0.0
49	0x00000000	0.0
50	0x00000000	0.0
51	0x00000000	0.0
52	0x00000000	0.0
53	0x00000000	0.0
54	0x00000000	0.0
55	0x00000000	0.0
56	0x00000000	0.0
57	0x00000000	0.0
58	0x00000000	0.0
59	0x00000000	0.0
60	0x00000000	0.0
61	0x00000000	0.0
62	0x00000000	0.0
63	0x00000000	0.0
64	0x3f800000	1.0
65	0x3f800000	1.0
66	0x3f800000	1.0
67	0x00000000	0.0
68	0x00000000	0.0
69	0x00000000	0.0
70	0x00000000	0.0
71	0x00000000	0.0
72	0x00000000	0.0
73	0x00000000	0.0
74	0x00000000	0.0
75	0x00000000	0.0
76	0x00000000	0.0
77	0x00000000	0.0
78	0x00000000	0.0
79	0x00000000	0.0
80	0x00000000	0.0
81	0x00000000	0.0
82	0x00000000	0.0
83	0x00000000	0.0
84	0x00000000	0.0
85	0x00000000	0.0
86	0x00000000	0.0
87	0x00000000	0.0
88	0x00000000	0.0
89	0x00000000	0.0
90	0x00000000	0.0
91	0x00000000	0.0
92	0x00000000	0.0
93	0x00000000	0.0
94	0x00000000	0.0
95	0x00000000	0.0
96	0x3f800000	1.0
97	0x3f800000	1.0
98	0x3f800000	1.0
99	0x3f800000	1.0
100	0x00000000	0.0
101	0x00000000	0.0
102	0x00000000	0.0
103	0x00000000	0.0
104	0x00000000	0.0
105	0x00000000	0.0
106	0x00000000	0.0
107	0x00000000	0.0
108	0x00000000	0.0
109	0x00000000	0.0
110	0x00000000	0.0
111	0x00000000	0.0
112	0x00000000	0.0
113	0x00000000	0.0
114	0x00000000	0.0
115	0x00000000	0.0
116	0x00000000	0.0
117	0x00000000	0.0
118	0x00000000	0.0
119	0x00000000	0.0
120	0x00000000	0.0
121	0x00000000	0.0
122	0x00000000	0.0
123	0x00000000	0.0
124	0x00000000	0.0
125	0x00000000	0.0
126	0x00000000	0.0
127	0x00000000	0.0
128	0x3f800000	1.0
129	0x3f800000	1.0
130	0x3f800000	1.0
131	0x3f800000	1.0
132	0x3f800000	1.0
133	0x00000000	0.0
134	0x00000000	0.0
135	0x00000000	0.0
136	0x00000000	0.0
137	0x00000000	0.0
138	0x00000000	0.0
139	0x00000000	0.0
140	0x00000000	0.0
141	0x00000000	0.0
142	0x00000000	0.0
143	0x00000000	0.0
144	0x00000000	0.0
145	0x00000000	0.0
146	0x00000000	0.0
147	0x00000000	0.0
148	0x00000000	0.0
149	0x00000000	0.0
150	0x00000000	0.0
151	0x00000000	0.0
152	0x00000000	0.0
153	0x00000000	0.0
154	0x00000000	0.0
155	0x00000000	0.0
156	0x00000000	0.0
157	0x00000000	0.0
158	0x00000000	0.0
159	0x00000000	0.0
160	0x3f800000	1.0
161	0x3f800000	1.0
162	0x3f800000	1.0
163	0x3f800000	1.0
164	0x3f800000	1.0
165	0x3f800000	1.0
166	0x00000000	0.0
167	0x00000000	0.0
168	0x00000000	0.0
169	0x00000000	0.0
170	0x00000000	0.0
171	0x00000000	0.0
172	0x00000000	0.0
173	0x00000000	0.0
174	0x00000000	0.0
175	0x00000000	0.0
176	0x00000000	0.0
177	0x00000000	0.0
178	0x00000000	0.0
179	0x00000000	0.0
180	0x00000000	0.0
181	0x00000000	0.0
182	0x00000000	0.0
183	0x00000000	0.0
184	0x00000000	0.0
185	0x00000000	0.0
186	0x00000000	0.0
187	0x00000000	0.0
188	0x00000000	0.0
189	0x00000000	0.0
190	0x00000000	0.0
191	0x00000000	0.0
192	0x3f800000	1.0
193	0x3f800000	1.0
194	0x3f800000	1.0
195	0x3f800000	1.0
196	0x3f800000	1.0
197	0x3f800000	1.0
198	0x3f800000	1.0
199	0x00000000	0.0
200	0x00000000	0.0
201	0x00000000	0.0
202	0x00000000	0.0
203	0x00000000	0.0
204	0x00000000	0.0
205	0x00000000	0.0
206	0x00000000	0.0
207	0x00000000	0.0
208	0x00000000	0.0
209	0x00000000	0.0
210	0x00000000	0.0
211	0x00000000	0.0
212	0x00000000	0.0
213	0x00000000	0.0
214	0x00000000	0.0
215	0x00000000	0.0
216	0x00000000	0.0
217	0x00000000	0.0
218	0x00000000	0.0
219	0x00000000	0.0
220	0x00000000	0.0
221	0x00000000	0.0
222	0x00000000	0.0
223	0x00000000	0.0
224	0x3f800000	1.0
225	0x3f800000	1.0
226	0x3f800000	1.0
227	0x3f800000	1.0
228	0x3f800000	1.0
229	0x3f800000	1.0
230	0x3f800000	1.0
231	0x3f800000	1.0
232	0x00000000	0.0
233	0x00000000	0.0
234	0x00000000	0.0
235	0x00000000	0.0
236	0x00000000	0.0
237	0x00000000	0.0
238	0x00000000	0.0
239	0x00000000	0.0
240	0x00000000	0.0
241	0x00000000	0.0
242	0x00000000	0.0
243	0x00000000	0.0
244	0x00000000	0.0
245	0x00000000	0.0
246	0x00000000	0.0
247	0x00000000	0.0
248	0x00000000	0.0
249	0x00000000	0.0
250	0x00000000	0.0
251	0x00000000	0.0
252	0x00000000	0.0
253	0x00000000	0.0
254	0x00000000	0.0
255	0x00000000	0.0
